…
 8192000$ 共计：39264124928 = 39.2 bilion次运算，将这个值换算为multiply-adds运算，需要除以2，得到19.6bilion，该值与论文中的计算量一致。（此次运算忽略了ReLu激活层的计算量，该计算量较小，可以忽略） 工具 torchinfo torchinfo 该工具可以自动统计网络模型的参数量和计算量。\n例子：\n1 2 3 4 5 from torchinfo import summary model = ConvNet() batch_size = 16 summary(model, input_size=(batch_size, 1, 28, 28)) 结果：\n1 2 3 4 5 6 7 8 9 10 11 12 13 14 15 16 17 18 19 ========================================================================================== Layer (type:depth-idx) Output Shape Param # ========================================================================================== ├─Conv2d: 1-1 [16, 10, 24, 24] 260 ├─Conv2d: 1-2 [16, 20, 8, 8] 5,020 ├─Dropout2d: 1-3 [16, 20, 8, 8] -- ├─Linear: 1-4 [16, 50] 16,050 ├─Linear: 1-5 [16, 10] 510 ========================================================================================== Total params: 21,840 Trainable params: 21,840 Non-trainable params: 0 Total mult-adds (M): 7.69 ========================================================================================== Input size (MB): 0.05 Forward/backward pass size (MB): 0.91 Params size (MB): 0.09 Estimated Total Size (MB): 1.05 ======
…
